checkpoint.pth (torch, 139543 bytes, 6 tensors)

fc1.weight f4 [128, 2]
0	0xbd0ce71c	-0.03440009
1	0x3eb5f7e8	0.355407
2	0xbf14fcb1	-0.58198076
3	0xbf05381d	-0.5203875
4	0xbe8b70d6	-0.27234524
5	0x3e343f49	0.17602266
6	0xbd3159f8	-0.04329869
7	0x3f069875	0.5257638
8	0xbd8083e0	-0.06275153
9	0x3e3f9998	0.18710935
10	0xbec60408	-0.3867495
11	0xbec98621	-0.39360145
12	0xbf2cefc2	-0.6755334
13	0xbef7e340	-0.48415565
14	0xbe914cf0	-0.2837901
15	0x3d137efd	0.036009777
16	0xbd8057dd	-0.062667586
17	0x3d0214b8	0.03175804
18	0xbef570de	-0.47937673
19	0xbe9da786	-0.30791873
20	0x3e1d0ab1	0.1533611
21	0x3ef6cd31	0.48203424
22	0xbe6031d2	-0.21894005
23	0x3ee7ea0d	0.45295754
24	0xbe4648ff	-0.19363783
25	0xbccec7d5	-0.025241772
26	0x3f1ce514	0.61287045
27	0xbf215463	-0.6301939
28	0xbee3eac5	-0.44515052
29	0xbe374fac	-0.17901486
30	0xbeabe7b0	-0.335752
31	0x3f0a4f14	0.54026914
32	0xbeeaaa86	-0.45833224
33	0xbea6a886	-0.32550448
34	0xbefcef53	-0.4940134
35	0xbf298920	-0.6622486
36	0xbed01e18	-0.4064796
37	0x3f199b3f	0.6000251
38	0x3e374a1d	0.17899366
39	0x3e50dd44	0.20396906
40	0x3d5ec3ab	0.054385822
41	0xbeacffe5	-0.33788982
42	0x3df50170	0.11963165
43	0xbf29044d	-0.6602219
44	0xbf02cc68	-0.5109315
45	0xbebaa44c	-0.36453474
46	0x3e4e0a74	0.20121175
47	0x3e2a5c3a	0.16636744
48	0xbea08ff6	-0.31359833
49	0xbcc7c3d4	-0.02438537
50	0x3eceb40d	0.40371743
51	0x3f26d9fe	0.6517638
52	0x3e7953cd	0.24348374
53	0x3d72771d	0.059195627
54	0x3eaa4a24	0.3325969
55	0xbf06d912	-0.52674973
56	0x3e0c2172	0.13684633
57	0xbf0c5865	-0.5482238
58	0xbf1750be	-0.5910758
59	0xbf170904	-0.5899813
60	0x3e10f547	0.14156066
61	0x3dda6edf	0.10665678
62	0xbf02f2a0	-0.51151466
63	0x3e2c95f5	0.16854079
64	0x3e89024b	0.26759562
65	0xbe084a9b	-0.1330971
66	0xbd89f3d3	-0.06735959
67	0x3d821d15	0.06353203
68	0x3ea62541	0.32450297
69	0x3f0fdc80	0.5619583
70	0xbf0b7f6e	-0.5449132
71	0xbe9f585b	-0.31122097
72	0x3e6e5eaa	0.23278299
73	0x3f09e5b2	0.5386611
74	0x3ee8f3bc	0.45498455
75	0x3eec59a4	0.4616214
76	0x3dc94e9c	0.09829447
77	0xbf1d6949	-0.6148878
78	0x3d853828	0.065048516
79	0xbee27e4b	-0.4423698
80	0xbf3bca00	-0.733551
81	0x3f08591c	0.5326097
82	0x3f088d50	0.53340626
83	0xbf349264	-0.70535874
84	0x3db6dbec	0.089286655
85	0xbe267677	-0.16256128
86	0xbdee4f60	-0.11636233
87	0xbea5b9c7	-0.323683
88	0x3e50476c	0.20339745
89	0xbed66fd0	-0.4188218
90	0x3e3b4075	0.18286307
91	0x3e8e9010	0.27844286
92	0x3ef43646	0.47697657
93	0x3e6e8380	0.23292351
94	0xbf332945	-0.6998485
95	0xbeeada76	-0.45869797
96	0x3e89d32b	0.2691892
97	0x3d817c50	0.06322539
98	0xbf0d35d6	-0.5516027
99	0xbed0780b	-0.40716586
100	0x3f210a96	0.6290678
101	0x3ee04a43	0.43806657
102	0xbeb3c925	-0.351144
103	0xbe6ebf33	-0.23315124
104	0xbf2c704d	-0.6735886
105	0xbe084a8b	-0.13309686
106	0xbf085177	-0.53249305
107	0xbf0ba167	-0.54543155
108	0xbd1f95e0	-0.03896129
109	0x3dd96ee8	0.10616857
110	0xbe9a6900	-0.30158234
111	0x3ec0511f	0.3756189
112	0xbf06fa7f	-0.52725977
113	0x3efc7cb0	0.4931388
114	0x3f11d2ca	0.56962264
115	0xbf012f3b	-0.5046269
116	0xbe0affb0	-0.135741
117	0x3d83965e	0.06425165
118	0x3d60968d	0.054831076
119	0x3def18c6	0.11674647
120	0x3e5a12fb	0.21296303
121	0xbc8507cd	-0.016239071
122	0xbeb2f032	-0.3494888
123	0x3ebcd6ba	0.36882573
124	0xbf2da481	-0.6782914
125	0xbed6952e	-0.4191069
126	0xbe354218	-0.17700994
127	0xbeb05a97	-0.34444115
128	0xbe7d4e72	-0.24736956
129	0xbf145e0c	-0.57956004
130	0xbe0dc42a	-0.13844362
131	0x3df8baf8	0.121450365
132	0xbeebdb16	-0.46065587
133	0xbd14a300	-0.03628826
134	0x3ea77d02	0.3271256
135	0xbe825cab	-0.25461325
136	0xbd1a1541	-0.037617926
137	0xbdef16cf	-0.11674272
138	0x3d20ecc5	0.0392883
139	0x3eaf8baf	0.34286258
140	0x3f0d7a41	0.5526467
141	0x3ea92f47	0.33043882
142	0x3efd30fe	0.4945144
143	0xbe6a2930	-0.22867274
144	0xbf229d12	-0.6352092
145	0xbec79450	-0.3898034
146	0x3ec6f51e	0.38858885
147	0xbdbb30ce	-0.09140168
148	0xbeb3f333	-0.35146484
149	0xbf0ab79d	-0.5418642
150	0xbf296846	-0.66174734
151	0xbf18c824	-0.5968039
152	0xbe7c5616	-0.24642214
153	0x3e90e971	0.28303102
154	0x3ed1c52c	0.40970743
155	0xbf18fc1e	-0.597597
156	0x3ecd1841	0.40057567
157	0xbf0da63b	-0.5533177
158	0xbe80e08a	-0.2517131
159	0xbe939f46	-0.28832453
160	0xbdfe90fd	-0.12429998
161	0xbdeae65b	-0.11469718
162	0xbf21f9c0	-0.63271713
163	0xbf436dec	-0.763396
164	0xbe3a7bcb	-0.18211286
165	0xbd92e8ed	-0.07173333
166	0xbec104f3	-0.37699088
167	0x3e46d73e	0.19418046
168	0xbf22ed8f	-0.63643736
169	0xbd4376c0	-0.04772067
170	0x3eff5d14	0.498757
171	0xbece3408	-0.40274072
172	0x3f11091c	0.56654525
173	0x3e3a09a0	0.18167734
174	0xbf1dd793	-0.61657065
175	0x3eebe3de	0.46072286
176	0xbda71be8	-0.081596196
177	0xbea19dd5	-0.3156573
178	0x3f001d35	0.50044566
179	0xbf227418	-0.63458395
180	0x3d26335a	0.040576316
181	0xbdcce44e	-0.10004483
182	0x3eb56703	0.35430154
183	0x3d32d659	0.04366145
184	0x3e449987	0.19199191
185	0x3dd1515c	0.10220596
186	0xbe311e50	-0.1729672
187	0xbe2504bc	-0.16115087
188	0xbee97393	-0.4559599
189	0x3ef402c0	0.47658348
190	0x3ece7b9c	0.4032868
191	0x3ea4bf01	0.32176974
192	0xbeff5fcc	-0.49877775
193	0x3d012cd0	0.031536877
194	0xbeff36a2	-0.4984637
195	0xbec74beb	-0.38925108
196	0xbe8bb525	-0.2728664
197	0x3e8b8bf5	0.27255216
198	0xbed7be5d	-0.42137423
199	0xbe1a58d1	-0.15072943
200	0xbdf8a738	-0.121412694
201	0x3e9fb43c	0.31192195
202	0xbf08d60e	-0.5345162
203	0xbef88b42	-0.48543745
204	0xbeafeb5f	-0.3435926
205	0x3f0db3c8	0.5535245
206	0xbea1954b	-0.31559214
207	0x3f0805ce	0.5313386
208	0x3e587d69	0.2114159
209	0x3d399ea1	0.045317296
210	0xbbac7b80	-0.005263746
211	0xbe0f2300	-0.13978195
212	0x3db5b1d8	0.08871812
213	0xbe2556d8	-0.1614641
214	0xbd52a9fe	-0.05143165
215	0x3d2b3cae	0.041805916
216	0xbf0d9820	-0.5531025
217	0xbedf5aa6	-0.43623847
218	0x3ee2299a	0.44172364
219	0xbf2db7fa	-0.6785885
220	0xbe0e3bc2	-0.13889983
221	0x3f1b1f48	0.60594606
222	0x3e82c822	0.25543314
223	0x3ca401c0	0.020020366
224	0xbf1cdf87	-0.61278576
225	0x3ec85917	0.3913047
226	0xbf00efc4	-0.50365853
227	0xbe4d8a28	-0.20072234
228	0xbe72f094	-0.23724586
229	0xbdd67418	-0.10471362
230	0xbcb0b84b	-0.021572253
231	0x3f0d282e	0.55139434
232	0x3d6cc579	0.057805512
233	0x3f1a034b	0.60161275
234	0x3efed15f	0.49769112
235	0xbebbed02	-0.3670426
236	0x3ea26036	0.31714028
237	0xbeffec78	-0.499851
238	0xbe9970eb	-0.29968962
239	0x3e47d0c5	0.19513233
240	0x3e1a7e92	0.15087345
241	0x3ee49e38	0.4465196
242	0xbe6e5544	-0.23274714
243	0xbc462c99	-0.012095594
244	0x3ecaa187	0.3957636
245	0xbf1f0522	-0.6211721
246	0x3ee86977	0.45392963
247	0xbf18f669	-0.5975099
248	0xbd344377	-0.044009652
249	0xbe39c4ef	-0.1814153
250	0xbebead0d	-0.37241402
251	0x3db7f074	0.0898141
252	0x3f074744	0.5284312
253	0xbe874469	-0.2641938
254	0xbf25db27	-0.64787525
255	0xbf0b7215	-0.5447095

fc1.bias f4 [128]
0	0xbf3988e7	-0.7247452
1	0x3ebe24b5	0.3713738
2	0xbeb4d4f8	-0.35318732
3	0xbf02256d	-0.5083836
4	0xbed0922c	-0.4073652
5	0x3ec1901a	0.37805253
6	0x3ef129b7	0.47102138
7	0x3efb7416	0.49112004
8	0xbd83d5c8	-0.0643726
9	0xbe71d00a	-0.23614517
10	0xbea0f73c	-0.31438625
11	0x3e109643	0.1411982
12	0x3edb41bf	0.42823598
13	0xbc35ba73	-0.011091816
14	0xbeab4c03	-0.3345643
15	0xbed32033	-0.41235504
16	0xbf2b25ef	-0.6685476
17	0x3e2b636d	0.16737147
18	0xbec946c8	-0.39311814
19	0xbf44fcd5	-0.7694829
20	0x3f15ee57	0.585668
21	0xbeeb1caa	-0.45920306
22	0xbda4be88	-0.080441535
23	0xbd4d1924	-0.050072804
24	0x3dafa716	0.08576791
25	0xbf09472b	-0.5362422
26	0xbf1bd58e	-0.60872734
27	0x3ec127b7	0.37725613
28	0xbc38fa49	-0.011290141
29	0x3f15ee91	0.5856715
30	0xbed8e020	-0.42358494
31	0x3e01f329	0.12690414
32	0xbe96b278	-0.29433036
33	0xbe0747da	-0.13211003
34	0xbf10aa64	-0.56509995
35	0x3e9f93f7	0.31167576
36	0x3e392a37	0.1808251
37	0xbe3bed32	-0.18352202
38	0xbe4e43ca	-0.20143047
39	0xbedf2be2	-0.43588167
40	0x3ec2b6ca	0.38030082
41	0xbf0a38c1	-0.5399285
42	0x3e789dac	0.24278897
43	0xbe73793a	-0.23776713
44	0xbed1bcdc	-0.409644
45	0x3d50ae64	0.05094756
46	0xbed34126	-0.41260642
47	0x3e586586	0.21132478
48	0x3d456ddb	0.04820047
49	0xbf0667aa	-0.5250193
50	0x3da86606	0.082225844
51	0x3eb0e8d1	0.34552625
52	0x3e9efba3	0.3105136
53	0xbdb64ab8	-0.0890097
54	0xbf1465bc	-0.57967734
55	0xbe1dfb74	-0.15427953
56	0x3d581b5e	0.052760474
57	0xbe248ce8	-0.16069376
58	0x3e10eae8	0.1415211
59	0x3ed3d240	0.41371346
60	0xbede1220	-0.43373203
61	0x3b36fe64	0.0027922625
62	0x3ea4b511	0.32169393
63	0xbb02d976	-0.0019966043
64	0x3e099ba7	0.13438283
65	0xbcdeb9ab	-0.027188143
66	0xbf0e4ed5	-0.5558904
67	0xbe09c840	-0.13455296
68	0x3e9bf96b	0.30463728
69	0x3f091229	0.53543335
70	0x3e9acef0	0.30236006
71	0xbdc511a9	-0.09622509
72	0x3ec4aba1	0.38412192
73	0xbee15b2f	-0.4401488
74	0xbf160235	-0.5859712
75	0xbf1ba98f	-0.608056
76	0x3f19a024	0.6000998
77	0x3ebec689	0.37260845
78	0xbf077da1	-0.5292607
79	0x3ea384c2	0.31937224
80	0x3ef3dba1	0.476285
81	0x3f428a9e	0.75992763
82	0x3efd5ec5	0.49486366
83	0x3ec504e2	0.38480288
84	0xbe26005c	-0.16211075
85	0xbeb387d1	-0.35064557
86	0x3f04a34e	0.51811683
87	0x3e9b83be	0.3037395
88	0xbed9de05	-0.425522
89	0x3f1206d5	0.57041675
90	0x3df04d2a	0.11733468
91	0x3e6a4347	0.22877227
92	0xbf1703f6	-0.5899042
93	0x3e6fb8e8	0.2341038
94	0xbdb0410b	-0.08606156
95	0x3ec97276	0.3934514
96	0xbe024a78	-0.1272372
97	0x3e9e20b0	0.30884314
98	0xbcb127fb	-0.02162551
99	0x3ea65284	0.3248483
100	0xbec54a57	-0.3853328
101	0x3eaf7566	0.34269255
102	0xbed88825	-0.4229137
103	0x3dce52d6	0.100743935
104	0xbf05cfca	-0.52270186
105	0xbf329516	-0.6975874
106	0xbf115e5e	-0.5678462
107	0x3f03c0e1	0.51466185
108	0x3ed8968c	0.42302358
109	0x3ef17a53	0.47163638
110	0x3ef3112c	0.4747404
111	0xbf21a893	-0.6314785
112	0xbee2187f	-0.44159314
113	0xbde9ff20	-0.11425614
114	0xbeeb1e9e	-0.45921797
115	0x3eec8783	0.46197137
116	0xbf17016f	-0.5898656
117	0xbe9393f5	-0.2882382
118	0xbf2ee198	-0.6831298
119	0xbed41e53	-0.41429386
120	0x3f00e5c8	0.5035062
121	0x3ef88c54	0.48544562
122	0x3ee25aad	0.44209805
123	0x3e87439c	0.2641877
124	0x3eec8545	0.46195427
125	0xbe3d2512	-0.18471172
126	0x3e807df2	0.2509609
127	0x3f23f897	0.64051193

fc2.weight f4 [256, 128]
0	0x3cd45646	0.025920045
1	0x3d9eba92	0.07750429
2	0x3cd3050c	0.025759242
3	0x3d4cdb44	0.050013795
4	0xbcfd6be0	-0.030935228
5	0x3ccb255e	0.024798092
6	0x3a0837b5	0.0005196289
7	0xbd4ecced	-0.0504884
8	0xbd6f1897	-0.05837306
9	0xbd4b2559	-0.049596164
10	0xbd97b7f9	-0.07408137
11	0x3d451b60	0.04812181
12	0x3d1ffa6e	0.039057188
13	0xbd1e1d78	-0.038602322
14	0xbd5181b8	-0.0511491
15	0x3d829f98	0.06378096
16	0x3d67850e	0.056523375
17	0xbbd48362	-0.0064853886
18	0xbdd16c3b	-0.102257214
19	0x3d9df970	0.07713592
20	0x3bcf434c	0.006325161
21	0xbd896b84	-0.0670996
22	0x3dad4021	0.08459497
23	0x3d76899b	0.060189825
24	0xbd601416	-0.054706655
25	0x3d33ab79	0.0438647
26	0xbd6bf4a3	-0.05760635
27	0xbcfa6b9a	-0.030568887
28	0x3d85ee61	0.06539608
29	0xbc0a16d8	-0.008428298
30	0xbd8b105e	-0.06790231
31	0xbd762d59	-0.06010184
32	0xbcd73647	-0.026270999
33	0xbc9fa55d	-0.019488031
34	0x3b5f4ade	0.0034071724
35	0x3d90cd80	0.07070446
36	0xbb8b9b75	-0.0042604753
37	0xbd7a490c	-0.06110482
38	0x3b96c6b9	0.0046013263
39	0x3d2d97ca	0.042381085
40	0x3c9e4ae2	0.019322816
41	0xbda988ac	-0.08278021
42	0xbd1e7106	-0.038682006
43	0xbd868606	-0.06568532
44	0xbd1f145d	-0.03883778
45	0x3cc3f773	0.023921704
46	0xbd8ccaea	-0.0687464
47	0x3ca09fc0	0.019607425
48	0x3d8a5981	0.06755353
49	0x3bbdf6d0	0.0057972446
50	0xbd885562	-0.066569105
51	0xbd30ae5a	-0.043135025
52	0x3a11714e	0.0005548195
53	0xbd89fe8a	-0.067380026
54	0x3d33dd52	0.04391224
55	0xbdc718a9	-0.097215004
56	0xbdc62ecb	-0.09676894
57	0xbe07e96e	-0.1327264
58	0xbd43954e	-0.04774981
59	0x3d3865fe	0.045019142
60	0xbdaa268a	-0.08308132
61	0x3b0b5f6b	0.002126659
62	0xbd3c59ad	-0.04598396
63	0x3ce154b5	0.027506212
64	0xbc57f189	-0.013180145
65	0xbdca2042	-0.09869434
66	0x3d961fe5	0.07330302
67	0x3d265c5e	0.040615432
68	0x3d81ec95	0.063439526
69	0x3d02c1c2	0.031923063
70	0xbd89a720	-0.0672133
71	0x3d898584	0.06714919
72	0xbbcd5527	-0.0062662545
73	0x3d1984c4	0.03748013
74	0xbd912586	-0.07087235
75	0xbcd0438c	-0.025422834
76	0xbdd2e11a	-0.10296841
77	0xbd91436b	-0.07092937
78	0x3c8f636a	0.017503459
79	0xbdab8281	-0.08374501
80	0xbaf9847a	-0.0019036673
81	0x3d18ac0c	0.03727345
82	0xbc57230f	-0.013130917
83	0xbda89be2	-0.08232857
84	0xbd8c590d	-0.068529226
85	0xbcfd462d	-0.030917251
86	0x3ce5af88	0.028037801
87	0x3d36919d	0.04457246
88	0x3d502ec6	0.050825857
89	0xbcf92f8f	-0.030418186
90	0x3ba9e833	0.005185151
91	0xbdc53d25	-0.09630803
92	0xbd9e5d54	-0.07732645
93	0x3cfb11f3	0.030648207
94	0xbdd42861	-0.10359264
95	0x3d0810ae	0.033219032
96	0xbd7f9322	-0.062396176
97	0xbd5e446f	-0.054264482
98	0xbde6efa9	-0.1127618
99	0x3ce0433e	0.027375814
100	0xbc49026c	-0.012268644
101	0x3d6a5ebe	0.05721926
102	0xbb5f509d	-0.003407515
103	0x3d1a2159	0.03762946
104	0x3b987af4	0.004653329
105	0xbcdfde68	-0.027327731
106	0xbc9d6ff4	-0.019218422
107	0xbc010786	-0.007875329
108	0x3d09e7e8	0.03366843
109	0xbda6d491	-0.081460126
110	0x3d80625f	0.06268763
111	0xbc1d7540	-0.009610474
112	0xbdbaa1af	-0.0911287
113	0xbd43e244	-0.047823206
114	0x3da02b4b	0.078207575
115	0x3d8cf4ab	0.06882604
116	0xbdb4cc31	-0.08828009
117	0xbcc85da0	-0.024458706
118	0x3d357062	0.04429663
119	0x3d27ea42	0.04099489
120	0x3d820f68	0.06350595
121	0xbd9dbec2	-0.077024
122	0xbbd0ead2	-0.006375649
123	0x3c6308aa	0.013857046
124	0xbd524534	-0.05133553
125	0x3cd6d1b9	0.02622305
126	0xbd168b95	-0.03675421
127	0x3d2095c5	0.03920533
128	0xbc93b4c3	-0.01803053
129	0xbd1083ef	-0.03528207
130	0x3c87ea3c	0.016591184
131	0x3ceab135	0.028648952
132	0xbd30e1bf	-0.04318404
133	0x3b2f18ac	0.0026717586
134	0x3d4b3aeb	0.049616735
135	0xbd026956	-0.031838737
136	0x3cced461	0.025247755
137	0xbcaea354	-0.021318115
138	0x3ced0a26	0.028935503
139	0xbd8a5a0d	-0.06755457
140	0xbd6a812b	-0.05725209
141	0xbd390ff6	-0.045181237
142	0x3da65bd7	0.08122986
143	0xbcdfa8a4	-0.027302094
144	0xb97d0e00	-0.00024133176
145	0xbd3ed65b	-0.046591144
146	0x3ce3feff	0.027831553
147	0x3db01ff9	0.08599848
148	0xbda0181e	-0.078171
149	0xbd92bf36	-0.07165377
150	0xbd89361d	-0.066997744
151	0xbb0ae0c7	-0.0021191107
152	0xbd0dae39	-0.03458998
153	0xbd7446af	-0.05963772
154	0xbd0cba7c	-0.034357533
155	0x3c83e5b8	0.01610075
156	0xbd6a58bd	-0.057213534
157	0x3c95310a	0.01821186
158	0xbcb2653b	-0.021776786
159	0xbd923605	-0.0713921
160	0x3c49863e	0.012300072
161	0x3d965f6c	0.07342419
162	0xbd7a954a	-0.06117753
163	0x3ad9e79d	0.0016624812
164	0xbd0f2b32	-0.034953304
165	0x3dae8a0d	0.08522425
166	0xbd9d532d	-0.0768188
167	0xbdad8945	-0.08473448
168	0x3d9f1842	0.07768299
169	0xbd4169e6	-0.047220133
170	0x3c3a473e	0.0113695245
171	0xbbf9f820	-0.0076284558
172	0xbbe9a02d	-0.00712969
173	0xbcb51674	-0.022105433
174	0x3d5f8fb6	0.054580413
175	0x3add1829	0.0016868162
176	0xbdb1f489	-0.086892195
177	0xbd55bbb3	-0.052180957
178	0xbd03efe0	-0.032211185
179	0x3d321d05	0.043484706
180	0xbd83db7d	-0.064383484
181	0x3daaafcb	0.08334311
182	0xbca145f4	-0.019686677
183	0xbcb34c68	-0.02188702
184	0x3d858911	0.06520284
185	0x3d1219a0	0.03566897
186	0x3d593fee	0.053039484
187	0x3d4248d6	0.047432743
188	0xbcc02341	-0.02345431
189	0xbdf458fa	-0.119310334
190	0xbc0c7b91	-0.008574382
191	0x3d903ab9	0.070424505
192	0xbd0fbd38	-0.035092562
193	0xbdb2d53c	-0.087320775
194	0x3d1468f2	0.036232896
195	0x3daea09a	0.08526726
196	0xbd01502c	-0.0315706
197	0xbd9c15f8	-0.07621378
198	0xbda7d206	-0.08194356
199	0x3cae48d6	0.021274965
200	0xbc1549ff	-0.00911188
201	0xbd3bc7ae	-0.045844726
202	0x3c925bf0	0.017866105
203	0x3d097cc6	0.03356626
204	0x3d88c82e	0.06678806
205	0x3d41a9db	0.047281127
206	0xbb75ad9b	-0.003748751
207	0xbdab93c2	-0.08377792
208	0xbdc514fa	-0.096231416
209	0x3da6581c	0.08122274
210	0x3cfc1aca	0.030774493
211	0x3d01df62	0.031707175
212	0xbd9c9f2a	-0.07647546
213	0x3daae984	0.08345321
214	0x3da6df24	0.081480294
215	0x3d1cd819	0.038292024
216	0xbd98b488	-0.074563086
217	0xbd0e06c9	-0.03467444
218	0xbd8a48eb	-0.06752189
219	0x3da73b47	0.08165603
220	0xbd1a672b	-0.037696045
221	0xbd2d79b3	-0.04235239
222	0xbbf8347f	-0.0075746174
223	0xbd3039b2	-0.043023773
224	0xbd324fe3	-0.043533217
225	0xbc208fd6	-0.009799918
226	0xbd5e1f15	-0.05422886
227	0xbd9bbd98	-0.076045215
228	0x3d97b790	0.07408059
229	0xbd29ee8c	-0.04148726
230	0xbcc5cb33	-0.024144745
231	0x3d95bb48	0.07311112
232	0x3d340b3c	0.043956026
233	0x3c4d0790	0.01251401
234	0x3d9a0585	0.07520584
235	0x3beaa8e7	0.007161248
236	0xbd2f7eb9	-0.04284546
237	0x3da7c081	0.08191014
238	0x3c8f629b	0.017503073
239	0xbdb09dfa	-0.08623882
240	0xbd48d65a	-0.049032547
241	0xbd769be6	-0.06020727
242	0x3d9eb591	0.07749475
243	0xbc935e95	-0.017989436
244	0xbda9148a	-0.08255871
245	0xbd029695	-0.031881887
246	0x3d635d6e	0.055509023
247	0x3c574ef1	0.01314138
248	0x3ccb3f3f	0.024810432
249	0xbc837835	-0.01604853
250	0x3c85a566	0.01631422
251	0xbcccd86e	-0.025005545
252	0xbd1f1416	-0.038837515
253	0xbdb14779	-0.086562105
254	0xbd8b0c2c	-0.06789431
255	0x3d102d11	0.03519923

fc2.bias f4 [256]
0	0x3a1e8420	0.000604691
1	0x3b133908	0.0022464413
2	0x3c20fd58	0.009826027
3	0x3d122a5e	0.035684936
4	0xbd0fbcd1	-0.03509218
5	0x3c644f1a	0.013934875
6	0xbd06a82f	-0.032875236
7	0xbd725ebf	-0.05917239
8	0xbaa1cd1c	-0.0012344453
9	0x3c88d514	0.016703166
10	0x3bb49464	0.0055108536
11	0x3c1777d5	0.009244879
12	0xbce8fdc3	-0.028441316
13	0xbd801ee0	-0.06255889
14	0xbda504fe	-0.08057593
15	0xbdaafefc	-0.08349416
16	0x3caeb304	0.021325596
17	0xbdaf16af	-0.085492484
18	0xbcce0a4d	-0.025151396
19	0x3d7f2b64	0.06229724
20	0x3dcb9665	0.09940795
21	0xbd10b5b1	-0.035329524
22	0xbc2490ee	-0.01004432
23	0xbbdc6f00	-0.0067270994
24	0xbc628ef9	-0.013828033
25	0x3cb90e83	0.022589928
26	0xbd466b6f	-0.0484423
27	0xbd859b09	-0.06523711
28	0xbdda20c7	-0.10650783
29	0xbd2a045b	-0.04150806
30	0xbcbfd770	-0.023418158
31	0xbc0b47cb	-0.0085010035
32	0x3d10474c	0.035224244
33	0xbc969bb4	-0.018384792
34	0xbd10f4d6	-0.035389744
35	0xbd829a61	-0.06377102
36	0x3d395463	0.045246493
37	0xbca9c822	-0.020725314
38	0xbce542be	-0.027985927
39	0x3c299ac6	0.010351842
40	0x3c5aadf1	0.013347135
41	0xbd36af90	-0.044601023
42	0xbca5d151	-0.020241411
43	0xbd6919e9	-0.056909475
44	0x3d6e94e2	0.058247454
45	0xbc3633f0	-0.011120781
46	0x3d7dce1c	0.06196414
47	0xbd6c6238	-0.057710856
48	0x3d4fac9f	0.050701734
49	0xbd975242	-0.07388736
50	0x3d5dd18c	0.054154918
51	0xbd5515b8	-0.052022666
52	0xbd3cf9fb	-0.046136837
53	0xbd05f873	-0.032707643
54	0x3c84e273	0.01622126
55	0xbce0f068	-0.027458385
56	0x3d4dbf8d	0.050231505
57	0x3d7bc02a	0.06146256
58	0x3a93cb09	0.0011275719
59	0x3c93628b	0.017991325
60	0x3cbbca8f	0.022923736
61	0x3d3f154f	0.04665118
62	0xbdb4dbcc	-0.088309854
63	0xbdd3d619	-0.1034357
64	0xbd42a11e	-0.047516935
65	0xbd86d670	-0.065838695
66	0xbda44981	-0.08021832
67	0x3d9432fa	0.072362855
68	0xbd373daf	-0.04473656
69	0xbd7ca72e	-0.061682872
70	0xbb802c01	-0.0039114957
71	0xbc30fbc4	-0.010802213
72	0xbd91e41b	-0.07123586
73	0x3d2bfffa	0.041992165
74	0x3d859cd5	0.06524054
75	0xbd58d7fd	-0.052940357
76	0xbccd9824	-0.02509696
77	0x3b10d38c	0.0022098748
78	0xbc51d5c2	-0.0128073115
79	0xbd9786e2	-0.07398774
80	0xbdaeedc0	-0.08541441
81	0xbd4b6651	-0.049658123
82	0xb9d85a19	-0.00041265858
83	0xbdbd3ac0	-0.09239721
84	0x3bbe2381	0.0058025722
85	0xbd32c083	-0.043640625
86	0x3d12186e	0.03566783
87	0x3b967b84	0.004592361
88	0x3da5ac1e	0.080894694
89	0xbcc2f3ce	-0.023797896
90	0xbdb23c1c	-0.08702871
91	0xbda42178	-0.08014196
92	0xbd0b25f3	-0.033971738
93	0x3da40518	0.08008784
94	0xbd8a33b7	-0.06748145
95	0x3d8e2a2d	0.06941638
96	0xbd81361b	-0.06309148
97	0x3d6be9d5	0.057596046
98	0xbcde7da9	-0.027159529
99	0x3d381bf1	0.044948522
100	0xbd15c0e2	-0.0365609
101	0xbd8b1343	-0.06790783
102	0xbd042fa4	-0.032271996
103	0xbd514a94	-0.051096514
104	0xbd9b31f2	-0.07577886
105	0x3d3d35ae	0.04619377
106	0xbba812a3	-0.005129175
107	0x3cdc4b45	0.02689136
108	0xbdbd6595	-0.09247891
109	0xbce1d984	-0.02756954
110	0xbcb78c96	-0.022405904
111	0xbcccb5e5	-0.024989078
112	0xbd330abc	-0.04371141
113	0x3b2bfd20	0.0026243404
114	0x3a283ce8	0.0006417767
115	0x3cc2da89	0.023785846
116	0xbd8a6b55	-0.06758753
117	0xbd6d406e	-0.057922773
118	0xbb8f1c4d	-0.0043673874
119	0x3d00b3c8	0.031421453
120	0xbd25eaf8	-0.040507287
121	0x3bd4e7aa	0.006497343
122	0xbbc357e4	-0.005961405
123	0xbda18cd7	-0.07888191
124	0xbc24a202	-0.010048391
125	0xbc2247f0	-0.009904847
126	0xbdd33104	-0.10312083
127	0xbcd93051	-0.026512297
128	0xbce01b76	-0.027356844
129	0xbd9aa9e1	-0.07551933
130	0x3d37fba6	0.044917725
131	0xbd0618ad	-0.032738376
132	0xbd06ad13	-0.0328799
133	0x3c7574a8	0.014981426
134	0x3c4b16ff	0.012395619
135	0xbd26f32f	-0.04075926
136	0x3ce68be9	0.028142886
137	0x3c18ede1	0.0093340585
138	0xbdbb258d	-0.091380216
139	0x3d1bfd91	0.038083617
140	0x3c747f14	0.014922876
141	0xbdbd897b	-0.09254738
142	0xbce1725e	-0.027520355
143	0x3d0dc15e	0.034608237
144	0x3d5f58fa	0.054528214
145	0x3c697b8a	0.014250645
146	0x3cfa1ec6	0.030532252
147	0xbd97657f	-0.07392406
148	0x3d695c75	0.05697294
149	0x3d984c53	0.07436433
150	0xbd4c2b25	-0.049845833
151	0xbd1ffb9d	-0.039058316
152	0x3ceae6e1	0.028674545
153	0xbb3d0490	-0.002884183
154	0xbd610305	-0.05493452
155	0x3b3e73b1	0.0029060657
156	0x3d4059fe	0.046960823
157	0x3d6f06c2	0.058356054
158	0xbdc5697e	-0.09639262
159	0x3e084e89	0.13311209
160	0xbce31124	-0.027718134
161	0xbd328657	-0.043585148
162	0xbcf603ba	-0.030031074
163	0xbd0e8499	-0.034794424
164	0x3dab2703	0.0835705
165	0xbdb5bcc9	-0.088738985
166	0x3ca89bf6	0.02058218
167	0xbb9efde9	-0.004852046
168	0x3cf5d3a0	0.030008137
169	0xbda3a0ac	-0.0798963
170	0xbd836ce6	-0.06417255
171	0xbd632a72	-0.0554604
172	0xbd4ccedf	-0.050001975
173	0xbc165100	-0.009174585
174	0x3d1c85a7	0.0382134
175	0xbd8b753f	-0.06809472
176	0xbd66b5ed	-0.05632584
177	0xbdbc3674	-0.091900736
178	0x3d8f429f	0.06995129
179	0x3b23af38	0.0024976265
180	0xbca80bae	-0.020513382
181	0x3cd1a6db	0.025592258
182	0xbd66d1b3	-0.05635233
183	0x3d87306b	0.06601032
184	0x3d9578ff	0.07298469
185	0x3d63da5f	0.055628177
186	0xbdce655c	-0.100779265
187	0x3ce22463	0.027605241
188	0x3cf426e9	0.02980371
189	0x3d14f348	0.036364824
190	0xbca98c28	-0.020696715
191	0xbd3b5fe9	-0.045745764
192	0xbd443d82	-0.04791022
193	0xbda23207	-0.07919698
194	0x3d6879bd	0.056756724
195	0x3ba6c34c	0.005089199
196	0x3d470a56	0.04859384
197	0x3d73360e	0.059377722
198	0x3da06bf6	0.07833092
199	0xbd2d629b	-0.042330366
200	0x3d2dd6b2	0.042441078
201	0xbc054f34	-0.008136559
202	0xbd03547f	-0.032063004
203	0xbb66caac	-0.0035216017
204	0xbd9f951c	-0.07792112
205	0x3d90c4bf	0.07068776
206	0x3c0fbc9b	0.008772994
207	0x3d0dd2ca	0.034624852
208	0x3cbd6446	0.023119103
209	0x3d577eaf	0.05261105
210	0xbd93c30d	-0.07214937
211	0xbd64c60e	-0.055852942
212	0x3da1e670	0.079052806
213	0x3d3e92c2	0.046526678
214	0xbd4b278b	-0.049598258
215	0xbda1708b	-0.07882794
216	0xbda2fccb	-0.07958373
217	0x3d5d6c5c	0.054058418
218	0x3c93439a	0.01797657
219	0x3d12b354	0.035815552
220	0xbda1a9ae	-0.07893692
221	0xbca190b7	-0.019722326
222	0xbd0f2f54	-0.034957245
223	0x3c884c0c	0.016637824
224	0xbca01f6c	-0.019546233
225	0xbc96c2a5	-0.01840336
226	0xbc189677	-0.009313217
227	0xbcd4c6dc	-0.02597373
228	0xbd1fc7eb	-0.039009016
229	0xbd930bad	-0.07179961
230	0xbde8a034	-0.11358681
231	0x3b20236d	0.0024435178
232	0x3d70c551	0.058781926
233	0xbba2b7ad	-0.0049657435
234	0x3d47d86f	0.04879039
235	0xbd4f1208	-0.050554305
236	0xbd1fded5	-0.03903087
237	0x3d80855f	0.062754385
238	0x3aaed13c	0.0013337503
239	0x3d3320fa	0.04373262
240	0xbca064a7	-0.019579245
241	0x3d8d0a96	0.06886785
242	0xbd1c92b0	-0.03822583
243	0xbcccfb8f	-0.025022296
244	0xbdbfd14f	-0.09366094
245	0x3d6ac5e8	0.057317644
246	0xbda5401b	-0.08068868
247	0xbd992f06	-0.07479672
248	0xbd6dab0c	-0.05802445
249	0x3bf6ebcd	0.007535434
250	0xbd7f2c3a	-0.062298037
251	0x3c02109d	0.007938531
252	0xbc09848b	-0.008393417
253	0x3cdf4ef8	0.027259335
254	0x3d13f002	0.03611756
255	0xbdee006a	-0.11621173

fc3.weight f4 [4, 256]
0	0xbb6c5cfa	-0.003606616
1	0x3b35179f	0.0027632487
2	0xbc3d7e21	-0.011565716
3	0x3cbefb6a	0.023313243
4	0x3d2f161f	0.042745706
5	0x3ccbe0e0	0.024887502
6	0x3ccade60	0.02476424
7	0x3d7bbd23	0.06145967
8	0xbd2b3992	-0.04180295
9	0xbc80f4d0	-0.015741736
10	0x3d2725c0	0.040807486
11	0xbb76d07f	-0.0037660894
12	0x3c444b78	0.011980884
13	0xbc82a064	-0.01594562
14	0xbc99ced1	-0.018775376
15	0xbd2e0f84	-0.042495266
16	0x3d062438	0.032749385
17	0x3d0347d1	0.03205091
18	0xbc3e892a	-0.011629382
19	0xbc9a9534	-0.018869974
20	0x3d969412	0.07352461
21	0xbd41eed5	-0.04734691
22	0xbc3ab336	-0.011395266
23	0x3caad108	0.020851627
24	0x3cca9b40	0.024732232
25	0xbd506c9b	-0.050884824
26	0x3bbc9685	0.005755248
27	0xbcd6bb81	-0.026212456
28	0x3d39e92b	0.045388382
29	0x3d0157b6	0.03157779
30	0xbd0b6be8	-0.034038454
31	0x3b5494e3	0.0032437376
32	0x3c331c73	0.010932076
33	0x3d342f56	0.043990456
34	0x3cd32304	0.025773533
35	0xba15fd80	-0.00057216734
36	0xbcb87476	-0.02251647
37	0x3cb7c12d	0.02243098
38	0xbbbcb02b	-0.0057583055
39	0x3c25b2e0	0.010113448
40	0x3c33c325	0.010971819
41	0xbd3e04fa	-0.046391465
42	0x3cf946d9	0.03042929
43	0x3d0560c4	0.032562986
44	0x3a989b56	0.0011642973
45	0x3b1d2e20	0.0023983791
46	0xbdcaf631	-0.099102385
47	0xbb360840	-0.0027775913
48	0x3d3ba6ff	0.045813557
49	0x3c336b11	0.01095082
50	0xbd50448f	-0.050846633
51	0xbbf0140e	-0.0073266095
52	0x3d028965	0.03186931
53	0xbc67a1e0	-0.014137715
54	0xbcc4280a	-0.023944873
55	0x3d1b75b9	0.037954066
56	0x3d78a92e	0.060708217
57	0xbca4a7c2	-0.020099524
58	0x3c12246c	0.008919816
59	0x3a949600	0.0011336207
60	0x3d0ae9b7	0.033914294
61	0x3d4d69c8	0.05014971
62	0x3d81e41f	0.06342339
63	0xbc8fa6e9	-0.017535644
64	0xbb9eeb6f	-0.004849843
65	0xb99a3c23	-0.00029417974
66	0x3cc6acfd	0.02425241
67	0xbca14bb1	-0.019689413
68	0x3c80613c	0.015671365
69	0x3c2fb0e8	0.01072333
70	0xbd7597fe	-0.059959404
71	0x3b01db96	0.0019814721
72	0xbb1f12b9	-0.0024272634
73	0x3d5e5c04	0.05428697
74	0xbbc03424	-0.0058655906
75	0xbd227af4	-0.03966804
76	0x3a9d77c0	0.0012013838
77	0xbcd1be48	-0.025603428
78	0x3bcc29e0	0.006230578
79	0xbbb1f04a	-0.005430256
80	0xbc81fbe4	-0.015867181
81	0xbc78f098	-0.015194081
82	0x3ba558ca	0.005045985
83	0x3c2fff0f	0.010741963
84	0x3a1b6d47	0.00059290644
85	0x3a255b82	0.0006307886
86	0xbd1fd641	-0.039022688
87	0xbd6dcd03	-0.058056843
88	0xbe21f547	-0.15816222
89	0x3d4f956e	0.050679617
90	0xbc488cda	-0.012240613
91	0x3ab8f6a8	0.0014111595
92	0x3cf86e9a	0.030326176
93	0xbd6887f1	-0.05677027
94	0x3d1913c7	0.037372377
95	0x3c7e8d8c	0.015536677
96	0xbd6e94ec	-0.05824749
97	0x3c717b98	0.01473894
98	0xbcedf709	-0.02904846
99	0xbbc5d594	-0.0060374234
100	0x3c267ee7	0.010162092
101	0x3c3097f8	0.01077842
102	0x3c4ba68a	0.012429843
103	0xbcb76e28	-0.022391394
104	0xbc8fd09e	-0.017555531
105	0x3d015694	0.031576708
106	0xbd72a5d4	-0.059240177
107	0x3b3b29de	0.002855889
108	0xbc541af3	-0.012945878
109	0x3b819ab2	0.0039552087
110	0x3c31a7e0	0.010843247
111	0x3cc73b74	0.024320342
112	0x3b1c303d	0.0023832463
113	0xbcd4d160	-0.025978744
114	0x3b8e741d	0.004347338
115	0x3d11d3ac	0.035602257
116	0xbd49106f	-0.049087938
117	0xbc8f2e0a	-0.017478008
118	0xbc0be7b0	-0.008539125
119	0xbc8dae70	-0.017295092
120	0x3c0e2932	0.008676814
121	0xbc5f3b7d	-0.013625023
122	0x3c114e5a	0.008868778
123	0x3c879e33	0.016554927
124	0x3bd25520	0.006418839
125	0xbc2c99d0	-0.010534719
126	0x3bebf80b	0.0072012
127	0x3bcb45ed	0.006203404
128	0x3b419963	0.0029540888
129	0xbcf816a8	-0.03028424
130	0xbd20a0ad	-0.039215732
131	0x3cabd530	0.02097568
132	0xbaa8bfb7	-0.0012874518
133	0xbc110586	-0.008851415
134	0xbcb08000	-0.02154541
135	0x3c135d92	0.008994477
136	0x3ba6e07e	0.0050926795
137	0xbce1389a	-0.02749281
138	0xbcb1c53c	-0.021700494
139	0xbc62fac4	-0.0138537325
140	0x3b509039	0.0031824245
141	0x3ca7e7ac	0.020496212
142	0xbd7191dc	-0.058976993
143	0x3c550efd	0.013004062
144	0x3b9cf10f	0.0047894786
145	0xbb4560cf	-0.0030117517
146	0xbcbd4004	-0.023101814
147	0xbb0843b7	-0.0020792314
148	0x3bc6cacb	0.0060666553
149	0x3b96b33b	0.0045990027
150	0xbd3d107a	-0.04615829
151	0x3c8db185	0.017296562
152	0xbd244323	-0.04010309
153	0xb84da757	-4.9031656e-05
154	0x3d1fa3fd	0.03897475
155	0x3b591e4d	0.0033129633
156	0x3be5509f	0.006998136
157	0x3d7c4063	0.06158484
158	0x3d4a780e	0.0494309
159	0x3db29ee0	0.08721709
160	0x3d0b55f6	0.034017526
161	0x3aa36c15	0.0012468124
162	0x3d3a1255	0.04542764
163	0x3d6f8761	0.058478717
164	0xbc2e84f0	-0.010651812
165	0xbd0fe8d9	-0.03513417
166	0x3c8436e1	0.01613945
167	0x3c5dbd78	0.013533942
168	0xbd1e2382	-0.03860808
169	0xbc6f7adf	-0.014616697
170	0x3bf60477	0.0075078565
171	0x3d4633f9	0.04838941
172	0x3c3051b5	0.010761668
173	0x3d49325c	0.049120292
174	0xbd7e9742	-0.06215597
175	0xbc5af664	-0.013364408
176	0x3cc17aa1	0.023618044
177	0x3a78f0c2	0.0009496325
178	0x3c989ce4	0.018629499
179	0x3c25fc46	0.010130947
180	0xbd3030ac	-0.043015167
181	0x3debd9c2	0.115161434
182	0x3b212dc6	0.0024593933
183	0x3d681df7	0.0566692
184	0x3d39ebb2	0.045390792
185	0xbb019f40	-0.0019778758
186	0x3d4ad4de	0.049519412
187	0xbc415875	-0.011800875
188	0x39e558c5	0.00043744422
189	0xbd7ff940	-0.062493563
190	0xbd2b939a	-0.04188881
191	0xbb014aa0	-0.0019728318
192	0xbd2bc20b	-0.0419331
193	0xbcb4e2b8	-0.022080764
194	0xbad3cfcb	-0.001615995
195	0xbc70f7b7	-0.014707497
196	0xbc848c53	-0.016180193
197	0xbc86dc87	-0.016462578
198	0xbcec2dbd	-0.028830403
199	0xbd3282ce	-0.043581776
200	0x3d07444a	0.03302411
201	0xbcdc0a1b	-0.026860287
202	0x3ce9262a	0.02846058
203	0x3c043100	0.008068323
204	0xbc5e9ddc	-0.013587441
205	0xbd4d7402	-0.05015946
206	0xbc737889	-0.014860281
207	0x3c1e957c	0.009679195
208	0x3b50bbce	0.0031850222
209	0x3cbe62a2	0.023240391
210	0x3b7a5b1f	0.0038201285
211	0x3d7ef553	0.06224568
212	0xbc972231	-0.01844892
213	0x3d1b7d1a	0.037961103
214	0x3c1f54a0	0.009724766
215	0xbc22783f	-0.009916364
216	0x3c51a9d4	0.012796838
217	0xbc4bf669	-0.0124488855
218	0x3d16efd1	0.0368498
219	0x3d46c7d8	0.04853043
220	0x3ce0832c	0.027406298
221	0xbba0a01f	-0.0049019004
222	0xbd39157f	-0.045186516
223	0xbd7c7d02	-0.061642654
224	0x3b1c6ff9	0.0023870452
225	0x3bd306d2	0.006440022
226	0x3b67e4a6	0.0035384088
227	0xbd6cf222	-0.057848103
228	0x3c0b93c8	0.0085191205
229	0x3c907c81	0.017637493
230	0xbbb98bef	-0.0056624333
231	0x3ceee886	0.02916361
232	0xbd67e23b	-0.056612235
233	0xbd79eb36	-0.06101533
234	0xbad25a9b	-0.0016048731
235	0xbc841372	-0.016122553
236	0x3c0062c3	0.007836047
237	0xbcb89946	-0.022534024
238	0x3b7d6d2a	0.0038669803
239	0xb9378a00	-0.00017503649
240	0xba2f9121	-0.0006697346
241	0x3da3845f	0.07984232
242	0x3c2646f2	0.010148751
243	0xbc99e28c	-0.018784784
244	0x3c0cd2c5	0.008595173
245	0x3be3b403	0.0069489493
246	0xb9e73400	-0.00044098496
247	0x3bbab495	0.0056977966
248	0xbd1c2d9a	-0.038129427
249	0xbc9a278b	-0.018817684
250	0x3cb60572	0.022219393
251	0xbd458547	-0.048222806
252	0x39450759	0.00018790121
253	0x3c224efe	0.0099065285
254	0x3b8ec75f	0.004357263
255	0x3cecf261	0.028924169

fc3.bias f4 [4]
0	0x3e01c1ee	0.12671635
1	0x3dd7b7d0	0.10533106
2	0x3d52b13e	0.051438563
3	0x3d11c914	0.035592154
