meta_3x3.pth (torch, 3479 bytes, 6 tensors)

weight f4 [8, 2]
0	0xbe019973	-0.12656192
1	0xbef0f952	-0.47065216
2	0x3f2c40de	0.6728648
3	0xbf148e13	-0.5802929
4	0x3ef0589b	0.469426
5	0xbe60dfec	-0.2196042
6	0x3ec5cf1d	0.38634577
7	0x3de7cad0	0.1131798
8	0x3f0592d5	0.5217717
9	0x3ecb51b2	0.39710766
10	0xbd99792b	-0.07493814
11	0x3ed5a10e	0.41724437
12	0xbe1244c2	-0.14284042
13	0x3ec5426b	0.38527235
14	0x3eda01a9	0.42579392
15	0xbe4fcaed	-0.20292254

bias f4 [8]
0	0xbde9d442	-0.11417438
1	0xbf1c1f0e	-0.60984886
2	0x3efe8c9e	0.49716657
3	0xbe31febb	-0.17382328
4	0xbe791eb4	-0.24328119
5	0x3e8a237a	0.2698019
6	0xbef2f53d	-0.47452727
7	0x3dafcaf0	0.08583629

weight f4 [16, 8]
0	0xbdc918e9	-0.09819204
1	0x3e9fea03	0.31233224
2	0x3e89fe8f	0.26952025
3	0x3d2c1cce	0.042019658
4	0x3d2b9f47	0.041899946
5	0x3e42e8f4	0.19034177
6	0x3dceecfc	0.10103795
7	0xbe66899c	-0.22513431
8	0x3e245cb3	0.16050987
9	0xbe7de769	-0.24795307
10	0x3de26892	0.110551015
11	0x3e302e91	0.17205264
12	0x3e15db79	0.14634503
13	0xbeb33a44	-0.3500539
14	0x3e19623a	0.14978877
15	0xbeb8236c	-0.35964525
16	0xbe302036	-0.17199787
17	0x3e20d86b	0.15707557
18	0x3e5788e6	0.21048316
19	0xbdea14ef	-0.11429774
20	0x3d4cbd46	0.049985193
21	0xbe969360	-0.29409313
22	0xbe4725e7	-0.19448052
23	0xbe9a937c	-0.30190647
24	0xbe7c09ae	-0.24613068
25	0xbd3698cc	-0.044579312
26	0xbe3505db	-0.17678015
27	0x3a3c117c	0.0007174236
28	0xbe99389e	-0.29926008
29	0xbd300867	-0.042976763
30	0xbdd6d3a6	-0.104895875
31	0x3e1244cb	0.14284055
32	0x3e86c20b	0.26319918
33	0x3e725f67	0.23669206
34	0xbe52b960	-0.20578527
35	0x3e9693b9	0.29409578
36	0xbe87067b	-0.26372132
37	0x3e547b22	0.20750096
38	0x3e2bf119	0.1679119
39	0xbe3f728c	-0.1869604
40	0xbea5e463	-0.32400808
41	0xbcaaf697	-0.020869536
42	0x3d34d9d5	0.044153053
43	0xbe1b9e77	-0.15197168
44	0x3ebf92bf	0.37416646
45	0xbe57138d	-0.21003552
46	0xbe514094	-0.20434791
47	0xbe86b6a3	-0.26311216
48	0xbdd98476	-0.10620968
49	0xbe983564	-0.29728234
50	0x3d691a21	0.056909684
51	0x3e14de73	0.14537983
52	0xbe02ffec	-0.12792939
53	0x3d20133a	0.039080836
54	0x3cdd430c	0.02700951
55	0xbea0237c	-0.31277072
56	0xbe5b4b9d	-0.21415563
57	0x3e83b3c0	0.25723076
58	0xbe1dd8ca	-0.1541473
59	0xbdd651bd	-0.10464809
60	0x3dded6a2	0.10880782
61	0xbde5b2ab	-0.11215719
62	0x3e793877	0.24337946
63	0x3e78b563	0.24287944
64	0x3e915f05	0.28392807
65	0xbe4b5c89	-0.19859518
66	0x3e6fbc1e	0.23411605
67	0x3e9ad894	0.3024336
68	0xbebf935d	-0.37417117
69	0x3e265af3	0.16245632
70	0x3da05e94	0.07830539
71	0xbd1123fb	-0.035434704
72	0x3d6eb74e	0.05828028
73	0x3e37e44f	0.17958187
74	0x3df64994	0.12025753
75	0xbe1f0adf	-0.1553149
76	0xbdb43034	-0.087982565
77	0x3dfafd96	0.12255399
78	0x3e52b5eb	0.20577209
79	0xbea801ae	-0.32813781
80	0x3e4470c2	0.19183639
81	0xbe082c4c	-0.13298148
82	0xbea7cd2f	-0.3277373
83	0x3c71286e	0.014719112
84	0x3e288035	0.16455157
85	0xbeb0fef4	-0.34569514
86	0x3e7e4e34	0.2483452
87	0x3e8af84e	0.27142566
88	0xbd2debaf	-0.042461094
89	0xbeae8e9d	-0.3409318
90	0x3c146689	0.009057649
91	0xbe9a86d3	-0.30180988
92	0xbec8cab1	-0.3921714
93	0x3da8c44d	0.082405664
94	0xbe9689b0	-0.29401922
95	0xbe2942fa	-0.16529456
96	0x3db95bd0	0.09050715
97	0xbe805a8e	-0.25069088
98	0x3e1b81b1	0.15186192
99	0xbdfaeda1	-0.12252355
100	0x3e573f30	0.21020198
101	0x3e72273f	0.23647784
102	0xbeaceec3	-0.3377591
103	0xbe0a9699	-0.13534011
104	0x3e6e0548	0.23244202
105	0x3cbb96a0	0.022898972
106	0x3d7a4051	0.061096493
107	0x3eaa5363	0.33266744
108	0xbe3cfc0c	-0.18455523
109	0xbe8af240	-0.27137947
110	0x3e6c2960	0.23062658
111	0xbe60765e	-0.21920153
112	0x3cef1d70	0.029188842
113	0x3d877bfc	0.06615445
114	0xbea88b7e	-0.32918924
115	0xbe22a76d	-0.1588418
116	0x3e10476f	0.1408975
117	0x3e3ffb8b	0.187483
118	0x3d8afe21	0.067867525
119	0x3df08942	0.1174493
120	0x3b1416d3	0.0022596612
121	0xbe26e75e	-0.16299197
122	0x3e2a0f40	0.1660738
123	0xbe5fb886	-0.21847734
124	0x3e011423	0.12605338
125	0x3de85430	0.113441825
126	0x3e583873	0.21115284
127	0xbc815bee	-0.015790906

bias f4 [16]
0	0x3cfd6045	0.030929694
1	0x3d11ab4a	0.035563745
2	0xbe8e87d3	-0.27838
3	0xbdaeff6f	-0.08544814
4	0x3d50b350	0.050952256
5	0x3ee03097	0.4378707
6	0x3dc30914	0.09523216
7	0xbeb20ec5	-0.34776893
8	0x3e5da742	0.21645835
9	0xbe292423	-0.16517691
10	0x3d512c50	0.05106765
11	0x3e5ed5e4	0.2176128
12	0xbe76d99c	-0.24106449
13	0xbdff8453	-0.12476411
14	0x3e6fbad7	0.23411117
15	0xbeae9282	-0.34096152

weight f4 [4, 16]
0	0xbda9ce29	-0.08291275
1	0xbe1b85d7	-0.15187775
2	0xbdf089b0	-0.11745012
3	0xbd1ce4a0	-0.03830397
4	0x3e22af73	0.15887241
5	0x3e1b00c4	0.15137011
6	0xbe09d0fe	-0.1345863
7	0x3de0d4f8	0.109781206
8	0xbd9f5be0	-0.07781196
9	0x3cca62b8	0.024705276
10	0x3e45b5ac	0.19307584
11	0x3c85f892	0.01635388
12	0xbe448cf1	-0.1919439
13	0xbe041052	-0.1289685
14	0x3cd45d31	0.025923343
15	0x3d880768	0.06642038
16	0x3d1efa87	0.03881314
17	0x3cd59457	0.02607171
18	0xbe2e57d2	-0.17025688
19	0xbe612830	-0.21987987
20	0x3de01711	0.109418996
21	0xbe66f431	-0.22554089
22	0x3e30527c	0.17218965
23	0xbda5845c	-0.08081886
24	0x3d8cc8cf	0.06874239
25	0x3dc2d826	0.09513883
26	0x3e009136	0.12555394
27	0x3d5163cc	0.051120564
28	0x3e2a499b	0.16629641
29	0x3d2a6008	0.04159549
30	0xbd8e165d	-0.06937859
31	0x3dfae78c	0.12251195
32	0x3cee988b	0.029125473
33	0x3e3cba43	0.18430428
34	0x3d15b3d0	0.036548436
35	0x3d2535f0	0.040334642
36	0x3d9eb9a1	0.0775025
37	0x3e939d63	0.28831014
38	0xbe49de62	-0.19713739
39	0xbadf0700	-0.0017015636
40	0x3e392e80	0.18084145
41	0x3e254c9e	0.16142508
42	0xbdc117fc	-0.09428403
43	0x3e17ecc1	0.14836408
44	0x3deb38c0	0.114854336
45	0xbe3e13b0	-0.18562198
46	0xbac26289	-0.0014830391
47	0xbe79126c	-0.24323434
48	0x3d8a4899	0.06752128
49	0xbde6ebc9	-0.11275441
50	0x3c4fb100	0.012676477
51	0xbe0c180a	-0.13681045
52	0xbe07c83b	-0.13259976
53	0xbc5f01a3	-0.01361123
54	0x3e08fc53	0.13377504
55	0x3e7b44d8	0.2453798
56	0x3e12475b	0.14285032
57	0x3caf3a81	0.021390202
58	0xbe3d7b62	-0.18504098
59	0xbe96d994	-0.29462874
60	0x3d8f017d	0.06982706
61	0x3e518a7a	0.20462981
62	0xbe4505aa	-0.19240442
63	0xbc8f8b80	-0.017522573

bias f4 [4]
0	0x3da2e431	0.0795368
1	0x3e0bddd1	0.13658835
2	0xbde5d719	-0.11222667
3	0x3e28de27	0.16490994
