meta_multi_agent_3x3.pth (torch, 2775 bytes, 6 tensors)

fc1.weight f4 [8, 2]
0.10234941 -0.18985225 0.34081018 -0.28919548 0.40765548 0.11732972 -0.6800517 -0.2770495
0.038887378 0.051356524 0.15985219 0.39789233 -0.66738176 0.3961746 -0.46763748 -0.5960731
00000000: 919c d13d a168 42be ac7e ae3e 6e11 94be
00000010: 38b8 d03e 904a f03d de17 2ebf 6fd9 8dbe
00000020: 5f48 1f3d 385b 523d 4bb0 233e 8bb8 cb3e
00000030: 88d9 2abf 66d7 ca3e 2e6e efbe 3f98 18bf

fc1.bias f4 [8]
-0.6217368 -0.54905504 0.59605646 0.22059153 -0.49969235 0.5512881 0.3239265 -0.31471178
00000000: 252a 1fbf df8e 0cbf 2897 183f bfe2 613e
00000010: add7 ffbe 3821 0d3f b2d9 a53e e721 a1be

fc2.weight f4 [16, 8]
-0.10337614 0.25381964 -0.056645744 0.2519089 0.16225015 -0.1307377 0.2639988 0.23595639
-0.13471878 0.1763582 0.38010916 -0.29439384 -0.03639979 0.044025455 -0.06275246 0.33632308
-0.036149602 -0.15347442 -0.30765775 0.07984214 -0.054919325 0.035959437 -0.2511771 0.33551878
0.037698038 -0.3043317 0.12722686 0.19651009 -0.26891506 0.08447945 0.2799722 0.27703303
-0.27499276 -0.30712253 -0.14168295 -0.11587005 0.040868282 0.23531932 0.28477618 0.20494701
0.016631525 0.019620644 0.2838938 0.11802752 -0.107673354 -0.2514869 -0.076857686 -0.04521126
-0.17687885 0.17970867 -0.2701672 0.020196632 0.100959696 -0.062921144 -0.26208267 0.17895526
-0.022525424 -0.1632646 0.39371267 0.25926468 0.34489015 0.037678197 0.05862144 -0.325438
-0.30810016 -0.13150004 0.1246912 0.25417197 0.3004383 0.08941491 0.011333569 -0.2894876
0.23849362 -0.02957537 -0.282111 -0.3426627 0.060392935 0.26158732 0.21845353 0.050903276
0.064318955 -0.262691 0.25247568 0.02373095 -0.085649684 -0.25135654 -0.1858496 -0.109346755
-0.16282718 0.24570347 0.017995523 -0.15754972 0.09552453 -0.3320322 -0.33494586 -0.27631253
0.32811898 0.02841893 0.412796 0.080831975 -0.14014366 0.10771662 0.16218992 0.059089165
-0.19332932 0.01950025 0.21737583 -0.060805805 -0.025476126 -0.13977121 -0.20211495 0.19218782
-0.047757857 -0.05765735 -0.014533378 -0.13191023 -0.34113634 0.011204898 0.24455674 -0.29989085
0.30896142 -0.08137174 -0.1839921 0.079250485 0.24250495 0.22862832 -0.20343761 -0.0063121226
00000000: dfb6 d3bd a6f4 813e 5e05 68bd 34fa 803e
00000010: e724 263e 1be0 05be da2a 873e 8d9e 713e
00000020: b8f3 09be 3e97 343e ab9d c23e caba 96be
00000030: f217 15bd 0954 343d 5d84 80bd 8a32 ac3e
00000040: 9b11 14bd 6628 1dbe 5185 9dbe 4784 a33d
00000050: 16f3 60bd 344a 133d 499a 80be 1ec9 ab3e
00000060: 4269 1a3d 5dd1 9bbe c247 023e f139 493e
00000070: 3caf 89be 9003 ad3d 8458 8f3e 46d7 8d3e
00000080: dacb 8cbe 2a3f 9dbe 5615 11be 474d edbd
00000090: 8065 273d 8cf7 703e 2fce 913e a1dd 513e
000000a0: d63e 883c 79bb a03c 875a 913e 6ab8 f13d
000000b0: d983 dcbd e4c2 80be 9067 9dbd 712f 39bd
000000c0: bb1f 35be 8d05 383e 5b53 8abe 6873 a53c
000000d0: f5c3 ce3d cddc 80bd b32f 86be 0c40 373e
000000e0: 3d87 b8bc d62e 27be b594 c93e 57be 843e
000000f0: 7195 b03e 7454 1a3d 091d 703d cf9f a6be
00000100: 4ebf 9dbe f2a7 06be 1a5e ff3d d422 823e
00000110: 0dd3 993e 2a1f b73d 6fb0 393c b837 94be
00000120: ac37 743e 0c48 f2bc da70 90be 7c71 afbe
00000130: 955e 773d c6ee 853e 48b2 5f3e f47f 503d
00000140: a8b9 833d 6f7f 86be 7e44 813e 6967 c23c
00000150: 1a69 afbd ceb1 80be 5c4f 3ebe 31f1 dfbd
00000160: 2bbc 26be b199 7b3e 596b 933c b754 21be
00000170: 5da2 c33d 2000 aabe 067e abbe d678 8dbe
00000180: 36ff a73e d1ce e83c ff59 d33e 3c8b a53d
00000190: d281 0fbe 889a dc3d 1d15 263e 7b07 723d
000001a0: 1ff8 45be fdbe 9f3c c597 5e3e 820f 79bd
000001b0: 4fb3 d0bc 2f20 0fbe 39f7 4ebe e2cc 443e
000001c0: be9d 43bd 1d2a 6cbd 681d 6ebc 7a13 07be
000001d0: 6ca9 aebe c094 373c 156d 7a3e 4b8b 99be
000001e0: 3130 9e3e 3aa6 a6bd 6d68 3cbe 144e a23d
000001f0: 3853 783e 8b1d 6a3e f351 50be ecd5 cebb

fc2.bias f4 [16]
-0.2545021 -0.22814532 -0.06934126 0.2210448 0.1035757 -0.12780091 0.3062225 0.10856861
0.11025135 -0.09811207 -0.11440574 -0.15346587 -0.08120623 -0.35055047 -0.02340091 -0.32184362
00000000: 194e 82be ed9e 69be ca02 8ebd 9159 623e
00000010: 7f1f d43d 3ede 02be 32c9 9c3e 3859 de3d
00000020: 76cb e13d fbee c8bd 8e4d eabd 2826 1dbe
00000030: 744f a6bd 5a7b b3be 44b3 bfbc b0c8 a4be

fc3.weight f4 [4, 16]
-0.06117621 0.086891584 -0.24939328 -0.028108452 0.1939837 -0.17557737 0.14091009 0.0885705
0.13681164 -0.06504746 -0.15816715 -0.06135741 0.1310599 -0.12985575 0.01931201 0.08569428
0.24392655 0.31555757 0.19558576 0.30739686 -0.09079988 -0.08291457 -0.21048626 0.22785763
-0.100126244 -0.058852583 0.02718161 0.19939178 -0.03817504 0.0819343 -0.08816085 0.0014675558
-0.16353223 -0.03627192 -0.09072822 -0.048173405 0.0066384827 0.14724426 0.11205798 0.026782181
-0.10006644 -0.21021315 0.00068989804 -0.09312001 0.33508715 0.22051081 -0.113773294 0.22985306
-0.12561187 -0.024022344 -0.21383688 0.28209257 0.052177075 -0.10312721 0.10180023 0.24553552
-0.09150458 0.103269465 -0.09120853 -0.20529255 -0.15045469 -0.04376471 -0.05194216 -0.24914196
00000000: e893 7abd 37f4 b13d f460 7fbe b243 e6bc
00000010: aaa3 463e 8eca 33be bc4a 103e 7364 b53d
00000020: 5a18 0c3e 9a37 85bd 92f6 21be e851 7bbd
00000030: 9134 063e e8f8 04be 3834 9e3c 7c80 af3d
00000040: e2c7 793e c390 a13e a247 483e 1f63 9d3e
00000050: 4af5 b9bd 1dcf a9bd b689 57be 8353 693e
00000060: fd0e cdbd 680f 71bd f8ab de3c 5c2d 4c3e
00000070: 6e5d 1cbd 2ccd a73d ad8d b4bd 005b c03a
00000080: fe74 27be dd91 14bd b8cf b9bd 7a51 45bd
00000090: a187 d93b 33c7 163e a77e e53d 4e66 db3c
000000a0: a2ef ccbd 1e42 57be 46da 343a b4b5 bebd
000000b0: 8b90 ab3e 96cd 613e f901 e9bd 9a5e 6b3e
000000c0: 66a0 00be 82ca c4bc 0ef8 5abe 706e 903e
000000d0: a1b7 553d 5c34 d3bd a47c d03d aa6d 7b3e
000000e0: c166 bbbd f17e d33d 8acb babd 3638 52be
000000f0: cb10 1abe a042 33bd 4dc1 54bd 121f 7fbe

fc3.bias f4 [4]
-0.080436185 -0.17760783 0.054480076 0.02732932
00000000: babb a4bd d4de 35be 8026 5f3d bde1 df3c
