meta_multi_agent_3x3.pth (torch, 2775 bytes, 6 tensors)

fc1.weight f4 [8, 2]
000000 26 1a a7 be 3e b8 29 bf c8 fb 29 3d 6e 50 e4 3e
       -0.32637137 -0.66296756 0.041499883 0.44592613
000010 bd d5 5c be 6f 68 ae be 66 7e 30 bf 20 c2 ce 3c
       -0.2156591 -0.34064052 -0.6894287 0.02523905
000020 de f6 3a be fa e2 f4 3e 01 0a 16 3e 02 7e 81 3b
       -0.18258235 0.4782942 0.14652254 0.003951789
000030 96 bb ab be db f1 9b 3e fd 25 19 3f e6 b3 32 bf
       -0.33541554 0.3045796 0.5982359 -0.69805753

fc1.bias f4 [8]
000000 d5 92 d9 be 32 49 b6 bc 26 c1 31 be 01 dd f2 be
       -0.42494836 -0.0222517 -0.17358837 -0.47434238
000010 13 1f e7 be 71 33 07 3f 82 a9 63 3e d9 73 b0 3e
       -0.45140895 0.5281287 0.22232631 0.34463385

fc2.weight f4 [16, 8]
000000 87 9e 87 3e ac 81 1f 3e 3b bc 01 be d3 2d 90 3d
       0.26488134 0.1557681 -0.1266946 0.0703999
000010 e0 dd 5b be 96 3f 37 bc 70 83 2e 3e 37 30 5d be
       -0.21471357 -0.011184594 0.17042327 -0.21600424
000020 08 54 7f 3e 30 20 3d bc 87 27 ad 3d 1d a9 08 be
       0.24934399 -0.011543319 0.08454805 -0.13345762
000030 e5 ee 80 bd 6c 14 40 3e 80 2f 9d bc 60 2b e6 bd
       -0.062955655 0.1875779 -0.019187689 -0.11238742
000040 e7 2b a0 be e6 24 c2 3d 91 de 1b be ec b6 bd 3a
       -0.31283495 0.09479694 -0.15221621 0.0014474071
000050 c7 96 05 3d f4 d4 0a be 6b 9d 5b 3e 19 7e 33 3e
       0.032614496 -0.13557798 0.21446769 0.17528571
000060 dc c6 88 be d0 34 68 be 1d c3 03 3b 8a 80 52 3e
       -0.26714218 -0.22676396 0.002010531 0.20556846
000070 3c 4e 16 3e 0c f0 72 3e 13 c5 8d bc 39 bb 2c 3c
       0.14678282 0.23724383 -0.017305886 0.010542684
000080 01 68 02 be 84 57 86 3e dc 8e 52 be c2 c6 9d 3d
       -0.12734987 0.26238644 -0.20562309 0.07703926
000090 7f da f2 3d 10 ab 03 3c 06 28 97 bc 57 38 b7 bd
       0.11858081 0.00803639 -0.018451702 -0.08946293
0000a0 2b 92 92 3e f9 7d f8 bd 14 08 52 be 34 4f a9 3e
       0.28627142 -0.121334024 -0.20510894 0.3306824
0000b0 a8 2a 89 be e6 b1 e6 bd 8a 73 78 bd de 33 48 be
       -0.26790357 -0.112644 -0.06065706 -0.19551036
0000c0 3c 21 90 3e 77 77 1b be 69 e5 87 bd 9e c3 7c 3e
       0.28150356 -0.15182291 -0.066355534 0.24683997
0000d0 7c a4 b2 3e 8a 7f df 3d 52 02 34 3d 1d 69 a8 be
       0.34891117 0.10912998 0.043947525 -0.32892695
0000e0 20 49 a0 3e 51 91 6d be b8 b8 20 be 80 2a d9 3c
       0.3130579 -0.23199965 -0.15695465 0.026509523
0000f0 11 cd 9d 3c 0d ef a4 3e de dd 35 3e 7a b5 b6 3d
       0.019262822 0.3221363 0.17760417 0.08921333
000100 68 c9 9d be 79 39 a9 3e 92 39 f7 bd 5f 86 31 bd
       -0.30817723 0.3305166 -0.120715275 -0.043341037
000110 42 c0 26 be a2 1c 3e be e4 14 ce bc a2 e2 a7 be
       -0.16284278 -0.1856561 -0.025156446 -0.32790095
000120 60 38 9f be 9c 21 d2 3c ad 28 b3 be cf dd 9d 3e
       -0.31097698 0.025650792 -0.3499197 0.3083329
000130 e8 b1 4e bd e2 d5 af 3e 72 a4 ac 3e 8f 93 c3 3d
       -0.050462633 0.34342867 0.33719212 0.09549629
000140 08 86 93 be 2d f5 71 be 7f 21 ab be 54 01 13 3e
       -0.28813195 -0.23628683 -0.33423993 0.14355975
000150 0f af 68 3e d1 56 b2 bc cf c9 09 3e c6 03 3d 3e
       0.2272303 -0.021769913 0.1345589 0.1845847
000160 c9 ea c9 bd 32 5e 14 3e 92 16 af be cd 1b e7 3d
       -0.09859235 0.14489058 -0.34196907 0.112845995
000170 fd 8a 6e 3e 4e b2 5f be 50 d8 7f be d1 30 b2 be
       0.23295207 -0.21845362 -0.2498486 -0.3480287
000180 ac e3 93 3e 6e a0 3a 3e aa da 91 3d 3f 6d 4a 3d
       0.28884637 0.18225262 0.07121785 0.04942059
000190 bc 0f 02 be 13 c8 40 3d f9 e2 19 be ee a4 c2 bc
       -0.12701315 0.047065806 -0.1502799 -0.023760285
0001a0 27 b3 0d be a4 2a 02 be e5 a4 8e 3e 4e d8 e4 3d
       -0.13837872 -0.12711579 0.2786018 0.11174069
0001b0 7b 05 cd bb 8e 4e 8d 3a b4 4c a9 3e 3c c6 33 be
       -0.006256757 0.0010780857 0.33066332 -0.17556089
0001c0 3a 8a af bc e7 79 f9 3d a2 0a 47 3e f4 2f da 3c
       -0.021428216 0.12181454 0.1943765 0.026634194
0001d0 1d 06 d4 bd 8a 71 aa 3e f4 1b 5d be 9f 8f 60 3e
       -0.103527285 0.33289748 -0.21592695 0.21929787
0001e0 8a 38 43 3e 20 47 88 bd 9c 99 a2 be 0e 7d 64 3e
       0.19064537 -0.06654191 -0.3175782 0.2231333
0001f0 39 bf 75 be 28 a1 5a be d3 12 d3 3d bf 90 24 3e
       -0.23998727 -0.21350539 0.10306325 0.16070841

fc2.bias f4 [16]
000000 fc 91 a6 be 91 34 9e 3e 86 2f b1 be 9b 64 3c 3e
       -0.32533252 0.3089948 -0.3460657 0.18397753
000010 63 d5 82 be a0 59 38 3e 07 69 3d 3d 39 81 26 3e
       -0.25553426 0.18002939 0.04624274 0.16260232
000020 97 3c 07 3e dc f0 1a 3d af a1 87 3e 04 36 cd 3d
       0.13206707 0.037827358 0.26490542 0.10020068
000030 94 4b 7b be 3b 19 63 3e f8 b8 96 be d3 21 0c be
       -0.2454055 0.22177593 -0.29437995 -0.13684778

fc3.weight f4 [4, 16]
000000 08 a3 29 be 8a a4 79 3e e0 0d 93 bd 1c 19 f6 bd
       -0.16566098 0.24379173 -0.07180381 -0.12016508
000010 8c a0 50 bb e4 db b3 3d 3b b9 dd 3d 61 58 0a bd
       -0.0031833975 0.08782175 0.108263455 -0.03377569
000020 84 83 de bd 6e f3 5b 3d 47 d5 91 bd b8 ac 18 3e
       -0.10864928 0.05369895 -0.071207576 0.14909637
000030 72 0d 5e 3e 26 3a 17 be ae 67 4b 3e 0e 44 63 3e
       0.21684816 -0.14768276 0.1986377 0.2219393
000040 48 58 96 bd 45 11 25 3e 32 39 13 3e 3b 0e d5 3c
       -0.07341057 0.16119869 0.14377287 0.026007762
000050 b4 62 d8 3d af ba 01 be eb 53 e7 3c 04 04 bc bd
       0.10565701 -0.1266887 0.028238257 -0.091804534
000060 f9 71 79 be db 36 dc bd 6e cc f1 3d 22 8b 86 bd
       -0.24359883 -0.1075265 0.1180657 -0.06569506
000070 e4 10 8c 3d e3 41 1a be 7b 43 19 3e 54 35 c3 3d
       0.06839159 -0.15064196 0.14967148 0.09531656
000080 48 35 3b bd 14 ad c2 3d 50 89 3e bd d4 c2 24 be
       -0.04570511 0.09505668 -0.04651767 -0.16089946
000090 c0 20 12 3e ad 51 29 be 2a 27 f3 bd 62 43 05 bc
       0.14270306 -0.16535063 -0.11872704 -0.008133741
0000a0 78 fc f8 bc ba 04 8f bd f5 39 2f be a8 50 15 3d
       -0.030393824 -0.069833234 -0.17111953 0.036453873
0000b0 38 86 41 bd 00 9e 68 bd d4 24 1b 3e a8 a8 6c bd
       -0.04724714 -0.056791306 0.15150768 -0.05777803
0000c0 cc 87 1b be e2 0b b0 bd 80 fe b9 bc 07 1c dc bd
       -0.15188521 -0.085960165 -0.022704363 -0.10747533
0000d0 2a c7 27 3e ca ad 59 3c e9 7c 77 be bd a5 3b 3c
       0.16384569 0.013286063 -0.24168743 0.011453089
0000e0 d7 78 c5 3d f2 14 77 bc 37 7d 2d 3e 84 e8 ca 3d
       0.09642189 -0.015080677 0.16942297 0.0990763
0000f0 48 88 a5 3d 4e 86 2d 3e bf f0 41 3c ee 70 27 3e
       0.08082634 0.16945764 0.0118371835 0.16351673

fc3.bias f4 [4]
000000 a0 9b af bd f6 4f f4 bc f9 c3 54 be 07 50 7c 3e
       -0.08574605 -0.029823285 -0.20777883 0.24639903
